wearable_activity_cnn_int8.tflite (tflite, 109936 bytes, 4 tensors)

tfl.pseudo_qconst1 i1 [6, 128]
000000 51 41 f8 4f e1 bc cb 5c e4 ac 9d a1 94 3f 97 0f
       81 65 -8 79 -31 -68 -53 92 -28 -84 -99 -95 -108 63 -105 15
000010 f4 c3 9c 93 b5 bf 37 67 39 99 b2 51 67 d2 45 5e
       -12 -61 -100 -109 -75 -65 55 103 57 -103 -78 81 103 -46 69 94
000020 53 e8 e5 b7 9f a8 a7 51 1e 03 5e 27 5c 9e d0 22
       83 -24 -27 -73 -97 -88 -89 81 30 3 94 39 92 -98 -48 34
000030 e3 ba e3 58 64 1c 02 d9 b0 2c 0b 39 54 50 04 5a
       -29 -70 -29 88 100 28 2 -39 -80 44 11 57 84 80 4 90
000040 95 e7 a6 d1 e5 c3 9a 10 e9 a1 df 83 f5 9d f7 c3
       -107 -25 -90 -47 -27 -61 -102 16 -23 -95 -33 -125 -11 -99 -9 -61
000050 29 f1 0a 7f 60 58 48 15 56 48 ed 99 44 3e da ef
       41 -15 10 127 96 88 72 21 86 72 -19 -103 68 62 -38 -17
000060 b5 ee f4 ff 4b f4 e5 ce d5 c4 a5 2b 63 75 72 c9
       -75 -18 -12 -1 75 -12 -27 -50 -43 -60 -91 43 99 117 114 -55
000070 44 3a b0 ee 27 1d e7 5f 2c 55 a9 6d dd f6 5d dd
       68 58 -80 -18 39 29 -25 95 44 85 -87 109 -35 -10 93 -35
000080 c1 48 46 09 f0 b9 b1 40 35 6a a2 1c a8 31 22 a9
       -63 72 70 9 -16 -71 -79 64 53 106 -94 28 -88 49 34 -87
000090 a2 50 b3 d1 fe 52 b0 82 7a e5 df 0b d8 fa ba ac
       -94 80 -77 -47 -2 82 -80 -126 122 -27 -33 11 -40 -6 -70 -84
0000a0 70 44 ff f7 65 e6 f3 cc 71 3e dc 9d 5a 72 1e 30
       112 68 -1 -9 101 -26 -13 -52 113 62 -36 -99 90 114 30 48
0000b0 35 af 1f d5 e5 a9 c8 ec c1 6d 29 d6 fd e3 1c c5
       53 -81 31 -43 -27 -87 -56 -20 -63 109 41 -42 -3 -29 28 -59
0000c0 39 b5 2e af 38 72 de ec f3 13 fd c4 92 e9 25 c3
       57 -75 46 -81 56 114 -34 -20 -13 19 -3 -60 -110 -23 37 -61
0000d0 78 49 b2 b8 5d 71 6b f3 56 04 2b c6 50 56 5a fa
       120 73 -78 -72 93 113 107 -13 86 4 43 -58 80 86 90 -6
0000e0 21 34 8c a3 4a eb 81 49 8a 0f 00 fa 9f ac ee 94
       33 52 -116 -93 74 -21 -127 73 -118 15 0 -6 -97 -84 -18 -108
0000f0 02 bb e1 eb 46 92 c7 e8 89 09 a2 2a 74 e7 07 21
       2 -69 -31 -21 70 -110 -57 -24 -119 9 -94 42 116 -25 7 33

tfl.pseudo_qconst3 i1 [128, 1, 3, 128]
000000 ec 3d 6a 69 3c d3 44 1f 04 b0 ef d1 20 60 42 23
       -20 61 106 105 60 -45 68 31 4 -80 -17 -47 32 96 66 35
000010 f4 2c f2 5a 5e bc ae ed d7 c2 d6 37 ad f1 be 43
       -12 44 -14 90 94 -68 -82 -19 -41 -62 -42 55 -83 -15 -66 67
000020 17 c3 af 4d db 56 0a a9 cf 4c c2 23 be ff a2 55
       23 -61 -81 77 -37 86 10 -87 -49 76 -62 35 -66 -1 -94 85
000030 cd 57 3d f7 ef 18 d7 d6 a5 f0 2d 05 f6 d0 da ca
       -51 87 61 -9 -17 24 -41 -42 -91 -16 45 5 -10 -48 -38 -54
000040 04 03 b7 dc e4 e0 0a 40 dc e1 3e 10 10 f8 a3 04
       4 3 -73 -36 -28 -32 10 64 -36 -31 62 16 16 -8 -93 4
000050 3a d6 cc 0f e4 93 9b 41 41 61 79 12 62 cb de a9
       58 -42 -52 15 -28 -109 -101 65 65 97 121 18 98 -53 -34 -87
000060 e0 d5 2a 31 f7 58 1f d4 04 44 bf d0 61 89 cd 27
       -32 -43 42 49 -9 88 31 -44 4 68 -65 -48 97 -119 -51 39
000070 0e 00 d1 e3 b0 02 ef 66 0d fb 26 51 0e 14 05 f0
       14 0 -47 -29 -80 2 -17 102 13 -5 38 81 14 20 5 -16
000080 cd e2 11 62 20 0f 33 ec 1c 38 c0 37 42 ee 2f 1f
       -51 -30 17 98 32 15 51 -20 28 56 -64 55 66 -18 47 31
000090 1a c6 cb d7 f3 b4 30 0c 38 49 5b ea a3 d9 e9 fe
       26 -58 -53 -41 -13 -76 48 12 56 73 91 -22 -93 -39 -23 -2
0000a0 ca e1 41 06 ba ee 0c 9b f9 2c 4c 2a 4a 62 10 fd
       -54 -31 65 6 -70 -18 12 -101 -7 44 76 42 74 98 16 -3
0000b0 b8 f2 69 f5 ae 05 24 19 13 c5 c5 d1 fe 15 4f 21
       -72 -14 105 -11 -82 5 36 25 19 -59 -59 -47 -2 21 79 33
0000c0 5e eb cd 3e cc d9 3e e6 5f ee e7 36 22 d6 15 b1
       94 -21 -51 62 -52 -39 62 -26 95 -18 -25 54 34 -42 21 -79
0000d0 db cb de 06 ab 0c df cc 2e d3 2f 79 d6 01 15 c0
       -37 -53 -34 6 -85 12 -33 -52 46 -45 47 121 -42 1 21 -64
0000e0 23 cc 4c 22 6b bd ce bb 13 79 3b cb c6 0f c1 44
       35 -52 76 34 107 -67 -50 -69 19 121 59 -53 -58 15 -63 68
0000f0 0d 16 1f d3 cd 3f 3c 14 c2 dc ed dc 39 1f 06 0b
       13 22 31 -45 -51 63 60 20 -62 -36 -19 -36 57 31 6 11

tfl.pseudo_qconst5 i1 [128, 1, 5, 64]
000000 77 37 da ca 2f c1 41 54 1e cd c6 18 47 e8 05 45
       119 55 -38 -54 47 -63 65 84 30 -51 -58 24 71 -24 5 69
000010 3f 4d a9 1b a9 28 c6 3d 32 fe fd 32 50 f7 f3 56
       63 77 -87 27 -87 40 -58 61 50 -2 -3 50 80 -9 -13 86
000020 d4 3f db f6 5f d8 da 39 35 12 bb 3c 45 01 af 47
       -44 63 -37 -10 95 -40 -38 57 53 18 -69 60 69 1 -81 71
000030 31 1a b0 a0 4c 90 f7 3e 1f 43 ef e6 23 4c 14 1f
       49 26 -80 -96 76 -112 -9 62 31 67 -17 -26 35 76 20 31
000040 33 f0 5a a0 11 0d c8 eb 1d c6 0f 68 b5 56 50 43
       51 -16 90 -96 17 13 -56 -21 29 -58 15 104 -75 86 80 67
000050 1c 2e 56 2f 30 e8 25 12 c0 08 07 42 e5 1d f3 a8
       28 46 86 47 48 -24 37 18 -64 8 7 66 -27 29 -13 -88
000060 d2 a9 48 1b f6 2e d9 11 43 e4 4c 05 32 d6 b3 b5
       -46 -87 72 27 -10 46 -39 17 67 -28 76 5 50 -42 -77 -75
000070 b6 95 12 b5 b2 ee e1 dd ec 65 fe e0 f6 f2 43 1a
       -74 -107 18 -75 -78 -18 -31 -35 -20 101 -2 -32 -10 -14 67 26
000080 a8 f5 e9 b3 a5 fa ab ca 48 e2 ca 06 de 47 23 d1
       -88 -11 -23 -77 -91 -6 -85 -54 72 -30 -54 6 -34 71 35 -47
000090 f5 a5 33 ff 35 c4 ff c5 bd 10 58 fd e3 17 3a 20
       -11 -91 51 -1 53 -60 -1 -59 -67 16 88 -3 -29 23 58 32
0000a0 17 99 be c0 d7 e9 1c 4a 10 ae a7 d9 4d 1e 92 69
       23 -103 -66 -64 -41 -23 28 74 16 -82 -89 -39 77 30 -110 105
0000b0 19 ea 8a 2f 24 26 96 99 ec 76 aa f5 5b 3c c4 12
       25 -22 -118 47 36 38 -106 -103 -20 118 -86 -11 91 60 -60 18
0000c0 d0 0a e8 0c 30 bf 0d 5e 5a ef 16 1b 22 13 df 28
       -48 10 -24 12 48 -65 13 94 90 -17 22 27 34 19 -33 40
0000d0 59 38 f8 fc f5 1a 00 17 b0 17 54 0f a9 43 f1 5a
       89 56 -8 -4 -11 26 0 23 -80 23 84 15 -87 67 -15 90
0000e0 bd aa 48 ce 4b 5a 40 46 4d 63 b3 2f b4 e6 a5 05
       -67 -86 72 -50 75 90 64 70 77 99 -77 47 -76 -26 -91 5
0000f0 1f 54 11 fa 37 1f 3c 8f e7 29 44 29 00 b8 b0 c2
       31 84 17 -6 55 31 60 -113 -25 41 68 41 0 -72 -80 -62

tfl.pseudo_qconst7 i1 [64, 1, 5, 9]
000000 4e f0 8b 5b 34 95 d6 dd 18 28 fc ab 0f 4f 09 de
       78 -16 -117 91 52 -107 -42 -35 24 40 -4 -85 15 79 9 -34
000010 99 cf 4d bc 48 23 0d 31 32 d3 54 13 fa 7f 5b b7
       -103 -49 77 -68 72 35 13 49 50 -45 84 19 -6 127 91 -73
000020 a5 75 0d 41 50 68 fc f5 50 29 42 2b b8 c6 fb ea
       -91 117 13 65 80 104 -4 -11 80 41 66 43 -72 -58 -5 -22
000030 89 9f 9d 7f 35 ec e7 12 d0 33 10 2a 6b ad cd af
       -119 -97 -99 127 53 -20 -25 18 -48 51 16 42 107 -83 -51 -81
000040 26 53 12 e1 f8 e5 43 bd 41 40 fd 28 11 fb 5f 5d
       38 83 18 -31 -8 -27 67 -67 65 64 -3 40 17 -5 95 93
000050 08 3a ee fb 2f 48 17 43 c2 4e e6 c0 c6 af 32 d0
       8 58 -18 -5 47 72 23 67 -62 78 -26 -64 -58 -81 50 -48
000060 3a cd 1e d5 4f 2a 06 89 0c 7f 1e 0f 2b 32 44 4b
       58 -51 30 -43 79 42 6 -119 12 127 30 15 43 50 68 75
000070 2e 56 68 3e 9c 0e fb 30 39 0e 53 38 f5 4f a3 23
       46 86 104 62 -100 14 -5 48 57 14 83 56 -11 79 -93 35
000080 e6 c9 ae ea bf 74 de 2e 5a 1e 35 29 c7 d9 d4 c2
       -26 -55 -82 -22 -65 116 -34 46 90 30 53 41 -57 -39 -44 -62
000090 14 61 74 21 4c 3d fd c6 fb d6 7f bb 13 38 57 40
       20 97 116 33 76 61 -3 -58 -5 -42 127 -69 19 56 87 64
0000a0 b7 d5 f8 e2 f9 d0 39 92 13 a8 e0 35 d3 f3 a9 d9
       -73 -43 -8 -30 -7 -48 57 -110 19 -88 -32 53 -45 -13 -87 -39
0000b0 11 38 35 bd c9 8b fa e4 6a 19 26 d8 5d 2b eb 0f
       17 56 53 -67 -55 -117 -6 -28 106 25 38 -40 93 43 -21 15
0000c0 0c 4e 3f d4 21 de 1d 81 e5 ff e8 59 a8 e1 06 dc
       12 78 63 -44 33 -34 29 -127 -27 -1 -24 89 -88 -31 6 -36
0000d0 3e 58 b4 4b 38 a3 f0 f1 a7 c8 c1 29 eb e2 1d b7
       62 88 -76 75 56 -93 -16 -15 -89 -56 -63 41 -21 -30 29 -73
0000e0 db 7c aa 9d 83 1a dd 6d 37 e7 e0 fa 94 c6 83 92
       -37 124 -86 -99 -125 26 -35 109 55 -25 -32 -6 -108 -58 -125 -110
0000f0 b7 1c 41 b3 04 0d df 60 f1 01 78 e3 e3 c4 4f 46
       -73 28 65 -77 4 13 -33 96 -15 1 120 -29 -29 -60 79 70
